data.pth (torch, 7345 bytes, 6 tensors)

l1.weight f4 [8, 84]
0.29227817 0.27845034 0.36175555 -0.34807315 -0.052751325 -0.05581085 -0.07331166 -0.19160135
0.30464724 -0.30045336 0.33182696 -0.029617535 -0.31318778 0.5003785 -0.29632184 -0.23381059
-0.40268338 0.54175097 0.22293368 0.35533306 -0.21633418 0.30269927 -0.039587203 0.18218465
0.4020002 0.0034868133 -0.4649163 -0.10744155 0.3524488 0.46125317 0.54789907 0.5623302
0.5547213 0.5820241 0.1616951 0.30369198 0.5354579 0.50088614 -0.323699 0.022905169
0.13501035 0.6109873 0.09971235 0.2900892 0.04792977 0.044154078 -0.1618061 0.016073313
0.38703656 0.34104872 -0.19841637 -0.41885448 0.053827856 -0.6974231 0.40382892 0.5802304
0.46603617 0.48072743 -0.16603594 0.1212188 0.035933614 -0.16936742 -0.24226326 -0.31673646
0.26000097 -0.37819627 -0.5408451 -0.38898465 0.38550985 -0.2933016 0.60562176 -0.39992324
-0.25610107 0.31127557 0.0017186598 0.16898444 0.20298031 0.23706557 0.38938728 -0.10362779
-0.37159285 -0.39562422 -0.05901743 0.53980064 -0.105188064 0.0133590335 0.14672819 -0.05941657
0.47036508 0.37189245 0.576342 0.6500425 -0.60145277 0.022700034 0.45743406 0.1559773
0.21816267 -0.43012163 0.7108092 0.06044439 0.70332915 -0.39938527 -0.2225877 0.1566527
0.06641965 -0.2201509 0.3261946 -0.23133247 -0.046214364 -0.28438222 0.7368911 0.48887673
0.054890502 -0.40595943 0.43767592 0.57677203 0.48252437 0.57780695 0.023538277 -0.20661102
0.44264552 0.48875338 0.26221597 -0.22432221 -0.15516026 -0.2578888 -0.26965308 -0.18798913
0.12555976 0.45129552 0.53690165 0.31895164 -0.019359905 -0.110291116 0.052527077 -0.1627134
-0.3010312 0.5492246 0.34467053 -0.3992711 -0.29336265 0.25452211 -0.18321691 -0.65272176
-0.1627254 0.5360331 0.045931086 0.0782629 -0.30946863 -0.16394922 0.5400028 0.16258213
-0.21301362 -0.04785749 -0.4074318 0.49023074 0.15579894 -0.58326095 -0.19392566 0.28398192
-0.47727063 -0.16570297 -0.17922217 0.479846 0.07487681 0.49908212 0.39838278 -0.108980745
0.4449409 0.34081742 0.29891625 0.71894073 -0.23051308 0.49864432 0.39505696 0.33936697
-0.3909483 0.71074975 -0.20357017 0.17887436 -0.10617048 -0.5926393 -0.33697486 0.6575967
0.37324518 -0.5926373 -0.1874127 0.24000272 0.3819462 -0.19645454 0.056306 -0.17285918
-0.033215083 0.12567633 -0.010077067 0.13129961 0.26892257 -0.5925907 0.4598066 0.46040246
0.52563995 0.50856394 -0.1554959 0.466834 0.43987462 0.46109924 -0.37159488 0.15628053
-0.30040115 0.22970925 -0.2647498 -0.1951422 0.2508011 0.011473522 -0.15251793 0.5186592
-0.43680158 0.35410413 0.7207896 0.71404856 0.13956015 -0.21555506 0.20777576 -0.5927403
-0.23362471 0.25270563 0.54448783 0.0043588877 0.20357588 -0.15358286 0.72218114 0.5354614
-0.23573498 0.51370376 -0.01689544 0.69026566 -0.5200038 0.66293037 -0.5926003 -0.5357662
0.69256884 -0.22735702 0.15600868 -0.5011409 0.79879165 0.37225434 -0.35902938 -0.3151948
0.6425264 -0.52905256 0.4428574 0.36593255 0.42181575 0.25339183 0.3310716 0.026934791
00000000: 7ca5 953e 0b91 8e3e 0638 b93e a536 b2be
00000010: c611 58bd eb99 64bd 6c24 96bd 2533 44be
00000020: b9fa 9b3e 06d5 99be 39e5 a93e 79a0 f2bc
00000030: 265a a0be ce18 003f 7fb7 97be 0b6c 6fbe
00000040: 842c cebe 31b0 0a3f ba48 643e 37ee b53e
00000050: b586 5dbe 66fb 9a3e 3126 22bd 9d8e 3a3e
00000060: f8d2 cd3e 0583 643b 8209 eebe 510a dcbd
00000070: 2b74 b43e 6029 ec3e 1d43 0c3f dff4 0f3f
00000080: 3702 0e3f 88ff 143f 6693 253e 847d 9b3e
00000090: c513 093f 133a 003f e0bb a5be 9fa3 bb3c
000000a0: 2740 0a3e aa69 1c3f fd35 cc3d 9286 943e
000000b0: 0252 443d e8da 343d 80b0 25be 2eac 833c
000000c0: a829 c63e f09d ae3e a92d 4bbe 1874 d6be
000000d0: 997a 5c3d 528a 32bf aac2 ce3e fb89 143f
000000e0: 4b9c ee3e e821 f63e 5305 2abe 9041 f83d
000000f0: 202f 133d a76e 2dbe dc13 78be 482b a2be
00000100: d91e 853e f1a2 c1be d374 0abf ff28 c7be
00000110: 8c61 c53e a12b 96be 070a 1b3f bdc2 ccbe
00000120: ae1f 83be 835f 9f3e a744 e13a 420a 2d3e
00000130: 12da 4f3e 51c1 723e c55d c73e cf3a d4bd
00000140: 6b41 bebe 428f cabe 43bc 71bd 6030 0a3f
00000150: d76c d7bd d9df 5a3c ea3f 163e ca5e 73bd
00000160: b1d3 f03e b068 be3e 268b 133f 2f69 263f
00000170: cff8 19bf 6cf5 b93c cc34 ea3e 83b8 1f3e
00000180: 0966 5f3e e738 dcbe 97f7 353f 8994 773d
00000190: 610d 343f 3a7c ccbe 08ee 63be 9169 203e
000001a0: 0707 883d 3d6f 61be fb02 a73e 6be2 6cbe
000001b0: 464b 3dbd 8c9a 91be e5a4 3c3f 0d4e fa3e
000001c0: ddd4 603d ead9 cfbe 0f17 e03e 55a7 133f
000001d0: 6f0d f73e 28eb 133f 58d3 c03c d791 53be
000001e0: 6fa2 e23e e23d fa3e 2c41 863e b9b4 65be
000001f0: 55e2 1ebe 000a 84be f80f 8abe 3980 40be
00000200: bd92 003e 3510 e73e 6372 093f a14d a33e
00000210: aa98 9ebc 4fe0 e1bd a226 573d 579e 26be
00000220: c320 9abe fc99 0c3f a878 b03e 436d ccbe
00000230: a133 96be b950 823e 379d 3bbe c618 27bf
00000240: 7da1 26be 7739 093f 3c22 3c3d 4d48 a03d
00000250: ac72 9ebe 4ee2 27be a03d 0a3f ee7b 263e
00000260: 3e20 5abe 3706 44bd e79a d0be 86ff fa3e
00000270: c289 1f3e 9750 15bf 7394 46be 1466 913e
00000280: d15c f4be 0aae 29be 0486 37be 60ae f53e
00000290: 0359 993d b187 ff3e d4f8 cb3e 4c31 dfbd
000002a0: 4bcf e33e 9f7f ae3e 8d0b 993e 800c 383f
000002b0: 9f0b 6cbe 4f4e ff3e e844 ca3e 82c1 ad3e
000002c0: 602a c8be b2f3 353f b374 50be d72a 373e
000002d0: e96f d9bd 36b7 17bf f887 acbe 4258 283f
000002e0: fe19 bf3e 14b7 17bf 1de9 3fbe 46c3 753e
000002f0: 748e c33e 612b 49be 1fa1 663d ff01 31be
00000300: 8a0c 08bd 4cb1 003e 481a 25bc 6873 063e
00000310: 38b0 893e 06b4 17bf c56b eb3e dfb9 eb3e
00000320: 5790 063f 3f31 023f 513a 1fbe de04 ef3e
00000330: 3f37 e13e 3315 ec3e af41 bebe 0108 203e
00000340: 2ece 99be e738 6b3e 498d 87be 5bd3 47be
00000350: 0069 803e 70fb 3b3c a92d 1cbe d9c6 043f
00000360: 75a4 dfbe 234d b53e ab85 383f e3cb 363f
00000370: dbe8 0e3e 77ba 5cbe 2bc3 543e d4bd 17bf
00000380: 513b 6fbe a262 813e 8e63 0b3f 00d5 8e3b
00000390: 3276 503e d344 1dbe dde0 383f 0014 093f
000003a0: 8364 71be 1782 033f 4e68 8abc 40b5 303f
000003b0: f81e 05bf ceb5 293f a7b4 17bf f927 09bf
000003c0: 314c 313f 47d0 68be bdc0 1f3e c54a 00bf
000003d0: 9c7d 4c3f 1f98 be3e b3d2 b7be 3661 a1be
000003e0: 9c7c 243f fd6f 07bf 35be e23e 835b bb3e
000003f0: 3cf8 d73e 93bc 813e 3782 a93e 5aa6 dc3c

l1.bias f4 [8]
1.3892083 0.4773037 0.5926554 0.4931466 0.6447467 0.96311563 0.5290097 0.79100174
00000000: 94d1 b13f 2761 f43e 44b8 173f b67d fc3e
00000010: 1f0e 253f bf8e 763f 2e6d 073f 177f 4a3f

l2.weight f4 [8, 8]
-1.3592178 0.57401466 0.7941871 0.9199433 0.7146901 -0.6127182 0.9266412 -0.11503957
-0.30815777 1.4816796 1.0931448 1.2239109 1.1213521 0.64298177 1.6426586 0.169806
1.3793459 -0.20539607 0.1936411 1.1732994 0.12352003 1.3695301 -0.6892918 0.2592964
-0.44463086 -0.50675416 1.0318564 0.35142636 -0.913127 0.16830486 0.10718571 1.8965776
1.2667748 -0.72685117 -1.1816412 0.32479367 -1.3616351 -0.112428255 0.03125311 0.33027312
1.1908242 0.753709 0.105268486 0.71281683 1.2429806 0.860145 1.0970072 -1.3502624
0.57389617 0.3613103 -0.69931537 -1.3044088 0.23262629 -0.6977293 0.48533812 1.2554005
1.4118853 -0.5212084 1.5486989 0.16786055 -0.34658402 1.4799486 -0.41815215 0.78949404
00000000: d9fa adbf a0f2 123f d94f 4b3f 6781 6b3f
00000010: eef5 363f 1adb 1cbf 5c38 6d3f de99 ebbd
00000020: dbc6 9dbe ada7 bd3f 2bec 8b3f 1da9 9c3f
00000030: 7788 8f3f 749a 243f a342 d23f a0e1 2d3e
00000040: 688e b03f 5953 52be da49 463e ad2e 963f
00000050: 12f8 fc3d c34c af3f 6d75 30bf 7fc2 843e
00000060: a8a6 e3be a4ba 01bf df13 843f 28ee b33e
00000070: b1c2 69bf 1c58 2c3e 2e84 db3d 0ec3 f23f
00000080: ad25 a23f eb12 3abf 0540 97bf 5b4b a63e
00000090: 0f4a aebf c940 e6bd 4303 003d 8f19 a93e
000000a0: ed6c 983f 13f3 403f 0197 d73d 2a7b 363f
000000b0: fd19 9f3f 7632 5c3f bb6a 8c3f 66d5 acbf
000000c0: dcea 123f aafd b83e 5506 33bf def6 a6bf
000000d0: 9635 6e3e 639e 32bf 3d7e f83e f7b0 a03f
000000e0: a8b8 b43f ea6d 05bf c43b c63f a3e3 2b3e
000000f0: 7673 b1be f56e bd3f 0a18 d6be 481c 4a3f

l2.bias f4 [8]
-0.10999622 -0.17886329 0.3839904 0.30375442 0.78703815 0.50768906 1.1305791 0.47179735
00000000: b345 e1bd f027 37be 649a c43e b385 9b3e
00000010: 557b 493f e9f7 013f d1b6 903f 6c8f f13e

l3.weight f4 [9, 8]
0.43831465 0.7596735 0.06637478 -1.2783127 -0.3365286 0.35839537 -1.7785146 -1.10877
-0.9035879 -1.4507915 0.57134366 -1.1795148 0.7573243 0.25590402 0.37830105 0.47262886
-1.6476823 0.13723956 0.13015373 -1.0987467 -1.3678608 0.79255486 -1.2217959 0.4035123
-1.7286297 -0.35583746 0.089729354 0.5836742 -1.7955914 -1.2424858 0.76641226 0.513458
-0.20521967 0.20031336 -1.3981683 0.31297815 0.32096672 -0.49562296 0.552089 -0.34946704
0.57643795 0.5055204 -1.2935663 -1.6897798 -0.89477247 0.49582094 0.06426999 -1.7037544
0.59338665 0.0016528512 -0.91819245 0.4632235 -0.5459011 -1.0597793 -0.8569805 0.45038283
-1.0628043 -1.658101 -0.04698499 0.66853064 0.82258236 -1.4859092 0.7508163 0.13098402
-1.2976983 -0.32408974 0.4517839 0.48584202 -0.22697015 -0.41846007 -1.5884778 0.5828875
00000000: c76a e03e f679 423f 80ef 873d c09f a3bf
00000010: 7a4d acbe 997f b73e 5ea6 e3bf 2dec 8dbf
00000020: 8951 67bf 89b3 b9bf 9443 123f 57fa 96bf
00000030: 01e0 413f da05 833e adb0 c13e 69fc f13e
00000040: 41e7 d2bf 8788 0c3e 0547 053e bba3 8cbf
00000050: 1016 afbf e0e4 4a3f cf63 9cbf 2a99 ce3e
00000060: bd43 ddbf 5430 b6be 06c4 b73d ac6b 153f
00000070: f0d5 e5bf c609 9fbf 9833 443f fc71 033f
00000080: 1b25 52be f21e 4d3e 2ef7 b2bf ac3e a03e
00000090: c055 a43e 4bc2 fdbe b455 0d3f 58ed b2be
000000a0: 7091 133f c969 013f 9593 a5bf b44a d8bf
000000b0: cf0f 65bf 3edc fd3e fc9f 833d a014 dabf
000000c0: 30e8 173f 7ca4 d83a a90e 6bbf a12b ed3e
000000d0: 2dc0 0bbf d9a6 87bf 1363 5bbf 9498 e63e
000000e0: f909 88bf a73c d4bf 5573 40bd d324 2b3f
000000f0: c294 523f 4632 bebf 7f35 403f ad20 063e
00000100: fa1a a6bf 17ef a5be 3850 e73e 49c0 f83e
00000110: dd6a 68be 6640 d6be 3e53 cbbf 1d38 153f

l3.bias f4 [9]
-0.12204262 0.080961734 0.07410843 -0.03107468 0.32965362 0.23598002 -0.22216527 0.20602436
-0.5490354
00000000: 7bf1 f9bd 44cf a53d 29c6 973d 5490 febc
00000010: 5cc8 a83e bfa4 713e 4b7f 63be 0df8 523e
00000020: 958d 0cbf
